…
        "device = torch.device(\"cuda\" if use_cuda else \"cpu\")\n",
        "print(device)\n",
        "model = Net().to(device)\n",
        "summary(model, input_size=(1, 28, 28))"
      ],
      "execution_count": null,
      "outputs": [
        {
          "output_type": "stream",
          "text": [
            "cuda\n",
            "GHOST BHAI is  False\n",
            "----------------------------------------------------------------\n",
            "        Layer (type)               Output Shape         Param #\n",
            "================================================================\n",
            "            Conv2d-1           [-1, 10, 26, 26]              90\n",
            "       BatchNorm2d-2           [-1, 10, 26, 26]              20\n",
            "           Dropout-3           [-1, 10, 26, 26]               0\n",
            "              ReLU-4           [-1, 10, 26, 26]               0\n",
            "            Conv2d-5           [-1, 10, 24, 24]             900\n",
            "       BatchNorm2d-6           [-1, 10, 24, 24]              20\n",
            "           Dropout-7           [-1, 10, 24, 24]               0\n",
            "              ReLU-8           [-1, 10, 24, 24]               0\n",
            "            Conv2d-9           [-1, 10, 22, 22]             900\n",
            "      BatchNorm2d-10           [-1, 10, 22, 22]              20\n",
            "          Dropout-11           [-1, 10, 22, 22]               0\n",
            "             ReLU-12           [-1, 10, 22, 22]               0\n",
            "           Conv2d-13           [-1, 10, 20, 20]             900\n",
            "      BatchNorm2d-14           [-1, 10, 20, 20]              20\n",
            "          Dropout-15           [-1, 10, 20, 20]               0\n",
            "             ReLU-16           [-1, 10, 20, 20]               0\n",
            "        MaxPool2d-17           [-1, 10, 10, 10]               0\n",
            "           Conv2d-18             [-1, 10, 8, 8]             900\n",
            "      BatchNorm2d-19             [-1, 10, 8, 8]              20\n",
            "          Dropout-20             [-1, 10, 8, 8]               0\n",
            "             ReLU-21             [-1, 10, 8, 8]               0\n",
            "           Conv2d-22             [-1, 16, 6, 6]           1,440\n",
            "      BatchNorm2d-23             [-1, 16, 6, 6]              32\n",
            "          Dropout-24             [-1, 16, 6, 6]               0\n",
            "             ReLU-25             [-1, 16, 6, 6]               0\n",
            "           Conv2d-26             [-1, 16, 4, 4]           2,304\n",
            "      BatchNorm2d-27             [-1, 16, 4, 4]              32\n",
            "          Dropout-28             [-1, 16, 4, 4]               0\n",
            "             ReLU-29             [-1, 16, 4, 4]               0\n",
            "        AvgPool2d-30             [-1, 16, 1, 1]               0\n",
            "           Conv2d-31             [-1, 10, 1, 1]             160\n",
            "================================================================\n",
            "Total params: 7,758\n",
            "Trainable params: 7,758\n",
            "Non-trainable params: 0\n",
            "----------------------------------------------------------------\n",
            "Input size (MB): 0.00\n",
            "Forward/backward pass size (MB): 0.70\n",
            "Params size (MB): 0.03\n",
…
        "    axs[1].legend(['train loss','test loss'], loc='best')\n",
        "    fig.set_figheight(10)\n",
        "    fig.set_figwidth(15)\n",
        "\n",
        "    plt.show()"
      ],
      "execution_count": null,
      "outputs": []
    },
    {
      "cell_type": "markdown",
      "metadata": {
        "id": "ZLTq03Kzentc",
        "colab_type": "raw"
      },
      "source": [
        "['L1+BN','L2+BN','L1 & L2 + BN','GBN','L1 & L2 + GBN']"
      ]
    },
    {
      "cell_type": "code",
      "metadata": {
        "id": "HnmbLa0Sentd",
        "colab_type": "code",
        "colab": {}
      },
      "source": [
        "def plot_all(train_acc1=[0,0] ,train_losses1=[0,0] ,test_acc1 =[0,0],test_losses1=[0,0],train_acc2=[0,0] ,train_losses2=[0,0] ,test_acc2=[0,0] ,test_losses2=[0,0],train_acc3=[0,0] ,train_losses3=[0,0] ,test_acc3 =[0,0],test_losses3=[0,0],train_acc4=[0,0] ,train_losses4 =[0,0],test_acc4=[0,0] ,test_losses4=[0,0],train_acc5 =[0,0],train_losses5 =[0,0],test_acc5=[0,0] ,test_losses5=[0,0]):\n",
        "    fig,ax = plt.subplots(1,2,figsize=(10,10))\n",
        "    \n",
        "    # ploting the Accuracy \n",
        "    \n",
        "    ax[0].plot(train_acc1)\n",
        "    ax[0].plot(train_acc2)\n",
        "    ax[0].plot(train_acc3)\n",
        "    ax[0].plot(train_acc4)\n",
        "    ax[0].plot(train_acc5)\n",
        "    ax[0].set_title('Model Accuracy')\n",
…
